model.pt (torch, 476852 bytes, 6 tensors)

weight f4 [128, 784]
00000000: 0122 393c 73a7 babc c1e8 cb3c 01f5 6bbb
00000010: 0027 833c ec78 cc3c dce6 24bb b7c6 04bb
00000020: 9e4d ea3c 379e 55bb 2eef a33b f7f2 47bc
00000030: b47e 623d e3a2 7e3d 899e bd3c 664d a3bc
00000040: 81bc d73b b044 843c 938c f83c a5cd 2a3b
00000050: 2587 003b 5df1 07bd 4e99 2dbc 5a82 b9bc
00000060: e12d c4bc 4a11 3ebb 852e 14bc da33 ab3c
00000070: 8802 f5bc 4a36 a7b9 dd35 06bd 4a2c 893c
00000080: 8b63 4e3c 0246 5e3d 7834 593d 2cd9 a53d
00000090: 3390 233e 9d0f 053e 4966 3b3e 266a cbbb
000000a0: 450c 413d c2aa 84bd 63d7 8dbe 5d04 60be
000000b0: 8e28 29be e5df 3f3d d447 383e dd3c 213e
000000c0: cab3 6c3e 0166 9c3e 3578 463e 84a9 0c3e
000000d0: ee0c 203b 93b5 4a3c 01ed 6b3b fcf8 4e3c
000000e0: fcdb 32bc 1a09 08bd 9020 733d f064 1a3e
000000f0: 540a 773e 35f1 213e 5215 3d3e dd6f 713e
00000100: 8e24 c33e c7fe 643e d979 253d 0cac 3f3d
00000110: a2f2 84bd a918 0abe 5918 33bd df5e 22be
00000120: caf8 55be 0688 ab3d b31d 7a3d 4d37 82bd
00000130: bc14 90bc d551 373e eb2f 833e 00bb 4c3e
00000140: 663a 17be 55d9 2cbe f115 ef3c b34e 49bc
00000150: 2593 d63a d5d4 fe3c 84d8 ebbd 2d61 063e
00000160: d07e 5b3e b46c 33be 0e9d 25be db8a bdbd
00000170: 6737 f5bd cd8c 8cba 90b7 123e 8508 093e
00000180: 53e0 c43c a28f a23d a7f6 d4bd 3263 dcbd
00000190: 98a3 fbbd 6dfc fcbd 4b83 87be f8bb c83c
000001a0: db81 3d3c a6f8 873e 31be 763e 114e 5b3c
000001b0: 1c01 8abd 5752 4ebe f07e 0b3e 5c4b 5e3b
000001c0: 8eb6 f8bc acca fc3b f558 e4bd 7ad5 57be
000001d0: 41cc 5ebc 8cd8 2abe 70f5 e0bd 2ed7 8ebc
000001e0: 27f9 c23d 807f 103e f46b 4d3e 9b38 5e3e
000001f0: d344 903e 0654 703e 0676 693d bbea 23be
00000200: 3362 fdbd a271 92bd 0a57 66bd e327 f43d
00000210: 69c7 5d3d 25ec a3bd c2b2 f7bd 0c83 4e3e
00000220: 8c81 b13d e365 0ebe e892 54be 38e4 b43d
00000230: 135c 5ebb 37e0 18bc 3496 843e 15e8 1bbd
00000240: 6b1e 703d 81aa 48be 5bc0 acbd 4a75 d2bd
00000250: e271 203d bd55 303e 6dce a53e 5e21 e33d
00000260: 6d49 a6bc 3e43 80be fe65 93be 247c c7be
00000270: 0e99 49be 2e72 6c3d 5f59 dd3d 724d 9e3d
00000280: 545c 12bc bf0f 57be b20c 5bbe 9761 c6bc
00000290: 6222 353c e64a 6ebd 14fa d63c 1b3c 253e
000002a0: e517 1e3c c6e1 f9bd 3275 843d f5ae d13d
000002b0: 59ec bf3d 30ef cc3c b07c f3bb 685e 66bd
000002c0: 5622 123e 974e 4b3e 10d9 aabc 9f22 98bd
000002d0: c283 93be 2b3f 06bf 47cd 1dbf ba48 f2be
000002e0: 0d34 73be 3c5e 8cbd 7f21 553c 3e69 49bb
000002f0: 70f4 a2bd 899c 24be 6694 59be ee14 7ebc
00000300: c2aa 6dbc 7f75 003e e45b 24bb d682 09bd
00000310: 8767 7e3c 97f6 57be 3877 b03d ff63 02be
00000320: 49b8 f3bd 2e14 aa3d 623d d3bd 4df2 e33d
00000330: dd0d 833e d1ce 1d3e 3f79 8bbd 6e0d dfbc
00000340: efa2 81be 402e dcbe 3934 c1be ace1 91be
00000350: 5e31 523d 852e d43d 2675 5dbd b01c 05bd
00000360: 996a 67bd 7f7e 94bd 2026 00be 2a5f 36be
00000370: bef7 01be 6b0f 6a3e 50eb 303e 5aae e9bd
00000380: 7fe2 7a3e d0e3 cebb 018a 1e3c 846f 74be
00000390: 3dbe 43be 35c5 23bb 1572 bcbd 7723 62bc
000003a0: 13a4 133b c73d c33d 21c5 dc3d 6eef 843d
000003b0: 8aa1 18be 2490 9fbe 0547 cdbe 6cc5 a4bd
000003c0: 58cb 113e ff32 e53d 1da8 77bd 40c7 93bd
000003d0: a1e1 8bbd e757 f4bd b566 91be 09ae 6abd
000003e0: 429d 583b 347d 8a3e b801 b5bd 0d47 e3bd
000003f0: c5e6 adbd 22ca 88be 08b0 883c d7cd 8cbe
0.011299611 -0.022784924 0.02489126 -0.0036004188 0.016009808 0.024960004 -0.0025162017 -0.0020260045
0.028601464 -0.0032595524 0.0050028777 -0.012203923 0.055296615 0.06216706 0.023146885 -0.019934367
0.0065837507 0.016146034 0.030340469 0.0026062515 0.0019611802 -0.033189166 -0.010595633 -0.022645164
-0.023947658 -0.0029002004 -0.009044294 0.020898748 -0.029908434 -0.0003189317 -0.03276621 0.016744751
0.012596975 0.054265983 0.053028554 0.08098063 0.15972976 0.12994237 0.18300737 -0.0062077222
0.04713084 -0.06477882 -0.2770339 -0.21876664 -0.16519377 0.04684438 0.1799615 0.15745874
0.23115459 0.30546573 0.19381793 0.1373654 0.002442177 0.012372392 0.003599942 0.012632605
-0.010916706 -0.033211805 0.059357226 0.15077567 0.24125034 0.1581467 0.18465164 0.23577829
0.38113827 0.22362815 0.040399406 0.046794936 -0.06491591 -0.1348597 -0.04372439 -0.15856503
-0.20895687 0.08375554 0.06106348 -0.06358204 -0.017588012 0.1790231 0.25622496 0.1999321
-0.14768371 -0.1687978 0.029185267 -0.01228683 0.0016370757 0.031107346 -0.115159065 0.13123007
0.21435094 -0.17521936 -0.16173193 -0.09255 -0.11973458 -0.0010723114 0.14327836 0.13382156
0.024032747 0.07937552 -0.10398608 -0.107611075 -0.122870624 -0.12352834 -0.26467356 0.024503693
0.0115666045 0.2655689 0.2409599 0.013385312 -0.06738493 -0.20148598 0.13622642 0.003391943
-0.030360486 0.00771459 -0.1114978 -0.21077529 -0.013598503 -0.16684169 -0.109843135 -0.01743659
0.09520178 0.14111137 0.20060712 0.21701281 0.2817751 0.23469552 0.05699732 -0.16007511
-0.12372246 -0.0715058 -0.05623535 0.1192167 0.05414525 -0.08004025 -0.12094642 0.20167178
0.08667287 -0.13906054 -0.20759165 0.08832592 -0.0033929392 -0.009330801 0.25895846 -0.038063128
0.05862276 -0.19596292 -0.084351264 -0.10276277 0.039171107 0.17220207 0.32384053 0.11090349
-0.020298684 -0.25051302 -0.2878875 -0.389619 -0.19687292 0.057726078 0.10808062 0.07729615
-0.008933146 -0.210021 -0.21391562 -0.024216456 0.011055561 -0.058176897 0.026242293 0.1613621
0.009649252 -0.12201266 0.06467666 0.102384485 0.093712516 0.025016397 -0.0074306354 -0.056242377
0.1427091 0.19854198 -0.020855457 -0.074284784 -0.2881146 -0.52440137 -0.61641353 -0.4732111
-0.23750325 -0.06853911 0.013008474 -0.0030732895 -0.07956779 -0.16075338 -0.21248016 -0.01550792
-0.014506044 0.12544821 -0.0025079185 -0.03357204 0.0155276125 -0.2109016 0.08616489 -0.12733458
-0.11900384 0.0830463 -0.10314442 0.111301996 0.25596514 0.15410925 -0.06810235 -0.027228083
-0.2531962 -0.43004036 -0.37735155 -0.28492486 0.05131661 0.103604354 -0.0540668 -0.03249806
-0.056498144 -0.0725069 -0.12514544 -0.1780974 -0.12692162 0.22857444 0.17277265 -0.11410208
0.24500464 -0.0063137785 0.009676457 -0.23870665 -0.19115539 -0.002498937 -0.09201447 -0.013802401
0.0022528216 0.095332675 0.10779787 0.0649098 -0.14905372 -0.31164658 -0.40093246 -0.08045468
0.14237726 0.11191367 -0.06046306 -0.07215738 -0.06830145 -0.119308285 -0.28398672 -0.05729488
0.0033052717 0.27048647 -0.088382185 -0.11097536 -0.084912814 -0.26716715 0.0166855 -0.27500793

bias f4 [128]
00000000: bb0f 883d 25bc a83e 8826 83be 463f 993d
00000010: f949 513d 6c40 aebe 94a0 c2be b131 dcbd
00000020: 08f7 cdbc 67d3 90bd 54af 98bd 5e93 9cbd
00000030: 77dd 98be 9afd d63d f7f9 dbbd 80d4 933c
00000040: c23c 3abd 44b0 6abe 1074 e9bd 1bbe 83be
00000050: 8141 08be 26a5 e0bd ae89 0ebe f18b 89be
00000060: affc 8abe 5f27 c4bb d6f1 523e 99ac cc3d
00000070: 3e56 8f3e 656d 02bc b760 0dbe 7617 ba3d
00000080: c9f5 ccba 4ca0 1fbe bfda 993e e09e 94be
00000090: 8737 853e d2d0 3e3d 3d91 39be 578d d23e
000000a0: bad0 14bb 0197 8b3c cf1a 813e 353d 7abe
000000b0: 6d34 873d 67b5 143e 5e75 83be ead5 0fbe
000000c0: 0c81 49bc 3b81 8dbe 3b77 fa3e 3a6b 333e
000000d0: 14a6 ac3e 14be 95bd abb4 bc3c 7c3f ff3d
000000e0: 0379 63bc 37f7 85bd def4 173e ef59 92bb
000000f0: 2368 213d 6560 593d 63e4 09be 5882 4ebc
00000100: 7344 733e 4afe 413d 1ec8 79be 0d9c 003e
00000110: 5b6c 023d 3753 0a3d 2e81 8bbd 638d 9dbe
00000120: 843c 5ebe 30ee 83be 14d9 373e e17f 553e
00000130: 7d84 9ebd fd54 e9bd f5fe d8bc 26bf bb3c
00000140: 1309 5fbe dd66 14be 85ee 2a3e 0c2a bbbb
00000150: a8b2 253e 578a bcbd 3ea3 843e 18fa 8ebd
00000160: 9cdf 62be 99a0 c8be 038b b43e 0b1d 08be
00000170: ae47 acbe 744f 8f3e 566a f43c 594c 11be
00000180: 9813 f53d cd29 f2bb 9d4e c83d f0c2 49be
00000190: b30c d9bd 157f d93e e80d eabd 1a54 c3bb
000001a0: 610d ffbd 369a a0bd 1231 1dbe 196b 2bbe
000001b0: 416b aabd 50b4 803e d6ff c4bc 5b7e 34be
000001c0: f17f d1be ddbd e5bd a0c7 9dbe 2209 2abd
000001d0: 6ec9 fbbd 822a 4c3e e2f5 333e f71e 0dbe
000001e0: 38d9 fe3d c96a d33d 7ee8 eabc ed29 fbbd
000001f0: f267 46be abcb 4ebe 85d4 103e cd6a 06be
0.06643625 0.32956043 -0.25615335 0.074827716 0.051095936 -0.34033525 -0.38013136 -0.107516654
-0.025142208 -0.07071572 -0.07455316 -0.076452956 -0.29856464 0.104975894 -0.107410364 0.018045664
-0.0454681 -0.22918802 -0.1139909 -0.25730976 -0.13306238 -0.109689996 -0.13919708 -0.2686458
-0.27145907 -0.0059861387 0.20600066 0.09993858 0.27995485 -0.007960652 -0.13806425 0.09086506
-0.0015637215 -0.15588492 0.30049703 -0.29027462 0.26018927 0.046585865 -0.1812181 0.4112346
-0.0022707419 0.017039778 0.25215766 -0.24437411 0.06601796 0.14522325 -0.25675482 -0.14046445
-0.012298834 -0.27637658 0.4891909 0.17521372 0.33720458 -0.07311645 0.023035368 0.124632806
-0.013883832 -0.06541293 0.14839503 -0.0044662873 0.039405953 0.053070445 -0.13466029 -0.012604319
0.2375658 0.04736165 -0.24392745 0.12559529 0.031841617 0.033770766 -0.068117484 -0.30771932
-0.21702772 -0.2576766 0.17953902 0.20849563 -0.07740114 -0.11393163 -0.02648876 0.022918295
-0.21780805 -0.14492364 0.1669255 -0.0057117995 0.16181433 -0.09206074 0.25905794 -0.06981295
-0.22155613 -0.39185026 0.35262308 -0.13292329 -0.33648437 0.27990305 0.029835861 -0.1418928
0.11966628 -0.007390237 0.09780619 -0.19703269 -0.10598125 0.42479768 -0.11428434 -0.0059609534
-0.12453724 -0.078419134 -0.1535075 -0.16740073 -0.08321238 0.25137568 -0.024047773 -0.17626326
-0.40917924 -0.11217854 -0.30816364 -0.041512616 -0.12294279 0.1993809 0.17574266 -0.13781343
0.12443775 0.10323102 -0.028675314 -0.12263856 -0.1937559 -0.2019488 0.1414357 -0.13126679

weight f4 [128, 128]
00000000: edc4 52bb d642 a23d 4ddb 843c 6a77 07be
00000010: 964c 483f fc12 71be a498 f4bd 541e d03e
00000020: dfc8 d6bd 9cdc 1ebf e799 643e 4650 ca3d
00000030: 4450 b83e 3d50 25bf 1a16 463e 5cbf b03c
00000040: ba19 d33d 2ce5 b73d 7ae2 abbd 4cea d53e
00000050: 94c4 0ebe 70b8 953e 5586 6d3e 23ff 1bbe
00000060: 5ebf c13e 20fe 1abe d752 54be 82dc 76be
00000070: f2f1 6c3e 719d 2a3d 336b 74bd 2cc4 68bd
00000080: 9c59 a33e c636 bf3e afeb 563d ed38 8cbe
00000090: 0f7f 943c f8aa 6c3d 5bb3 8b3e c493 a83e
000000a0: ed05 003f a4d8 503e e0ce 26be cda5 b3bd
000000b0: d0e4 09bf a927 233e 354a 30bd 3245 713e
000000c0: f7dc c83e f0ba 8a3e 4f1b 623b 4be2 90bc
000000d0: b1b4 66be 791b 3f3d 61b0 da3c 777c 1ebe
000000e0: e074 80be 16fb 1e3e 1d8e 65bd 8a63 12be
000000f0: d4d5 243e d8a9 953e 6d62 6a3e 721e c23e
00000100: 4407 ddbd 5a64 1fbb 0821 bd3e 089c bf3c
00000110: 7ece 0b3d 871b 01bd 2304 343e a3c9 3e3e
00000120: 5623 203e 6794 fbbc 8f01 843d d81f a63e
00000130: 4af8 933e c54e 403e 25d4 363f 6670 523d
00000140: bfc7 37be fdf3 83bd f0fc 31be a713 92bd
00000150: fedc 13be ef22 a43e c276 22be 6272 82be
00000160: 67d8 e83e f83e 80be 1c7d 44be 8179 e73d
00000170: 4690 57bd 30a3 69be a010 ab3c 1ea4 64bd
00000180: c513 30be 86ee 6abd 92df b8be ee41 efbc
00000190: 15d0 d7be 0f6c bcbd ecbc 063f 5d17 ea3e
000001a0: 455f 5ebd 8b19 cebe c372 30be 242f 2d3f
000001b0: f353 1e3f 9c12 e7bc 3f55 e43e e336 873c
000001c0: 980d cb3d e571 2b3e 34d0 8e3e 0620 0c3e
000001d0: 47c2 273f 0bab 22be ae3f 663e e994 1a3e
000001e0: 25e0 50be 6976 633d 2e91 b03d 7684 3c3f
000001f0: 1ca0 423f b1bd 07bf 41ec bfbe 971c 35be
00000200: 3d8e e4be b078 1bbd 14e9 733d f1c7 b5be
00000210: 732a 3abf 27b4 a6bd c61e d23e 2577 223e
00000220: 49ac d2be d5e6 843e c7d3 e5bd 34f8 b6bd
00000230: 7b97 05be db57 11bf 1e81 84be 1a1c b9be
00000240: dac2 99bd 19b8 44be f2df 393c d13c d9be
00000250: e7d1 16be 6159 35be 6adf debe 605f 593e
00000260: 90fd 1a3e d7e4 ed3d df31 543e 8f82 edbc
00000270: b9c5 7b3d c226 3dbd 6203 ad3e 7f61 143e
00000280: 8f97 5dbe 920d 9b3d f695 ccbd 04c7 013d
00000290: e8b0 2ebd 74dc 30bf 4f09 573e e832 3fbe
000002a0: d8bf d43d b4a4 9f3d accf b8be c809 c73c
000002b0: da08 50bf 4968 6f3e 3eaf 8f3e b92b ab3e
000002c0: 7941 66be 8300 8a3e 469e d73d 5914 253e
000002d0: 1cd9 8e3d 838a 4e3e 6e37 b7bd cde2 833e
000002e0: 95ca 67be 18dd b93e a954 b03c bf20 eabe
000002f0: a427 af3e 9d54 8dbb e7f1 b5be ef93 41be
00000300: d561 9c3d 628b ea3e 2c9c bcbe 6f44 63be
00000310: a687 4d3e 1ef5 503e 8bd1 81be 007b e3bd
00000320: 9556 783d 2e79 fd3c 1ad5 48be da07 ad3b
00000330: ba26 31be 85ab 12bd ab21 273e ba05 2a3e
00000340: 7a58 06bc 6e2e 1abd 1455 3cbe 47c7 403e
00000350: f393 b4be 9501 21be fbfa a83d fa04 b43e
00000360: a31d 8d3e 1bf3 ac3e d459 46bc 66c0 5fbe
00000370: 0c86 dfbd 8381 d4bc 01ce afbc df20 5d3e
00000380: c03c 433d 9ed0 943d 9760 3bbe 293e 6ebd
00000390: 70a5 42ba 4fc5 b0bd b414 a33e 1e9f ca3e
000003a0: 691e a8be 11ec bc3e 294c ca3e af68 c53e
000003b0: 92ab a5be d517 263e 3043 4ebe 59d4 3b3e
000003c0: 6297 1cbd 1e16 e63d 7a75 81be 2602 afbe
000003d0: f663 693b cb1b 3d3d d805 04bf 6a9f 3c3e
000003e0: 320c 8b3e 71bd 73be 1b39 91bc 98fd 863b
000003f0: 8610 1cbe 608a 293e 9bc6 1b3e 85e4 f7be
-0.0032160834 0.07922904 0.016217852 -0.13229147 0.7824186 -0.23542398 -0.119431764 0.4064814
-0.10487532 -0.62055373 0.22324334 0.09878592 0.35998738 -0.6457556 0.19344369 0.021575622
0.10307641 0.08979258 -0.08392806 0.41780317 -0.13942176 0.29242277 0.23195775 -0.15234046
0.37841314 -0.15136003 -0.20734726 -0.24107555 0.2313917 0.041654054 -0.059672546 -0.05682771
0.31904304 0.37346476 0.05247086 -0.2738718 0.018126993 0.057780236 0.27285275 0.32925236
0.5000904 0.20395142 -0.16289854 -0.08771858 -0.53864765 0.15933098 -0.04303952 0.23561552
0.39231083 0.27095747 0.003450114 -0.01768603 -0.22529866 0.04665706 0.026695432 -0.15477167
-0.2508917 0.15525469 -0.056043733 -0.14295784 0.16097194 0.29231143 0.22889109 0.37913853
-0.107924014 -0.0024321289 0.36939263 0.023389831 0.034132473 -0.031520393 0.17579703 0.18631606
0.1563848 -0.030710412 0.0644561 0.3244617 0.28900367 0.18780048 0.71417457 0.051376723
-0.17947291 -0.064430214 -0.17381644 -0.07132655 -0.1443977 0.32057902 -0.15865615 -0.25477892
0.45477602 -0.2504804 -0.1918835 0.11302472 -0.052627824 -0.22816157 0.02088195 -0.055820577
-0.17195041 -0.05735638 -0.3610807 -0.029206242 -0.42150941 -0.09200298 0.5263202 0.4572095
-0.054290075 -0.40253863 -0.17231278 0.67650056 0.61846846 -0.028207116 0.44596288 0.016505664
0.09914702 0.16742666 0.2789322 0.13684091 0.6553082 -0.1588556 0.2248523 0.15095867
-0.20398004 0.055532847 0.08621441 0.7363962 0.7602556 -0.5302382 -0.37484935 -0.17686687
-0.4463977 -0.037956893 0.059548452 -0.35504106 -0.7272102 -0.0813983 0.41039103 0.15865763
-0.41147068 0.2595736 -0.11222034 -0.0893406 -0.13046066 -0.5677468 -0.2587976 -0.36154252
-0.07507868 -0.19210853 0.011344897 -0.42429212 -0.14728509 -0.17709877 -0.43529826 0.21227789
0.15135789 0.11615913 0.2072215 -0.02899292 0.06146786 -0.04617954 0.33791643 0.14490317
-0.21639846 0.07570948 -0.0998954 0.031683937 -0.04264918 -0.69086385 0.20999645 -0.18671763
0.10388154 0.077950865 -0.3609594 0.024296656 -0.81263506 0.23379625 0.28063387 0.33431795
-0.22485913 0.26953515 0.10528235 0.16121043 0.06975004 0.20170026 -0.08946119 0.25758973
-0.22635873 0.36301494 0.021524744 -0.45728108 0.3420993 -0.004313065 -0.3553612 -0.18904088
0.076358475 0.45809466 -0.368379 -0.22194074 0.20071277 0.20406005 -0.2535518 -0.11107445
0.060629446 0.030941572 -0.19612542 0.005280477 -0.1729993 -0.035808105 0.16321437 0.16603747
-0.008199805 -0.037641935 -0.1839183 0.18826018 -0.35269126 -0.1572326 0.08250996 0.35160047
0.27561674 0.33779225 -0.012106378 -0.21850738 -0.10914239 -0.025940662 -0.021460535 0.2159457
0.047665358 0.07266353 -0.18298565 -0.05816475 -0.0007425165 -0.08631384 0.31851733 0.39574522
-0.328357 0.36898854 0.3951123 0.3855643 -0.3235746 0.16220029 -0.20142817 0.18342723
-0.038230307 0.11234687 -0.2528494 -0.34181327 0.003561256 0.046169084 -0.51571417 0.18420187
0.27157742 -0.23802735 -0.017727425 0.004119586 -0.15240678 0.16556692 0.1521248 -0.48416534

bias f4 [128]
00000000: f569 6f3d 34a8 283b 44bd 74bd f741 9fbd
00000010: 81a1 b73d 974c ca3b 62b2 3bbd 1758 d4bc
00000020: b40f 403d dc7a 13bd 0df4 afbd 141b 253d
00000030: 454f a63d 340e 323d 1908 4fbb 4982 a4bd
00000040: 1500 72bc df09 8c3d bfbc 96bd ba9e 0ebd
00000050: 9194 9fbd 9a03 3d3b da30 cdbc c781 aa3c
00000060: 4889 20be d823 823d 4ed1 913d 17cf 013c
00000070: 4cfd ccbd c32b a4bd ccd3 c2bd 26ff a43d
00000080: b380 a2bd 32d0 0bbd 20db e13d 73f0 29bd
00000090: 112d 2e3d 327d 70b9 571a a1bd 2504 243d
000000a0: fa6c be3c c8c6 b0bd d882 223d f6aa 883c
000000b0: 0d08 90bd d90b b33d 3f71 83bd c19a cebc
000000c0: cba9 d7bc 4897 be3c 51b1 63bd 2d64 84bd
000000d0: b213 70bc 5cc1 5f3d cab0 6e3c e5b5 4b3d
000000e0: 306c 193d b224 f2bc b429 a83c e43a 7f3d
000000f0: 9a6d 7e3d 0a79 43bc 466d 58bd 0510 3bbd
00000100: dbf7 36bd 1ab3 523d eb5f de3d fe32 923d
00000110: 3666 d1bc fb4a b13c fc8f 5a3d 0d77 4ebb
00000120: 5c07 6bbd a97c 623c eba2 c93d e7d0 8a3c
00000130: d429 123d 8e1d 053d e268 303d 42f6 e2bd
00000140: 9aaa cd3d ee98 cc3d 0ffc 86bc 2928 3f3d
00000150: 0a2c cb3d 2267 4b3d 4e57 dabc 738d b13d
00000160: d698 0f3e 8a51 d03d 94de 3ebd 9216 f13d
00000170: 479e cdbc d5e1 bd3d dc2c 763c da87 6a3d
00000180: bbdf d1bc 96c8 26bd 26e6 d53c eb34 89ba
00000190: 35d3 08bd 367d ecba 8715 1b3c d9c1 3c3d
000001a0: e822 883d b360 21bc ea9c fdbc afd7 483d
000001b0: ea62 29bd 5ed9 873d 1116 923d 190e 0cbd
000001c0: 7bf7 b33a b956 72bc 06a1 413d 409c b9bd
000001d0: 2154 15bd 8c4d 98bd d9ed 11bd b67b 3b3d
000001e0: 349b 233d ee84 a5bd d7f3 163e a5ac 3a3d
000001f0: 3149 b8bb 043a 913d 74ec 50bc 031a c63c
0.058450658 0.0025735023 -0.05975081 -0.07776254 0.08966351 0.006173681 -0.045824416 -0.02592091
0.046889976 -0.03600584 -0.08591471 0.040309027 0.08120588 0.043470576 -0.003159052 -0.080326624
-0.014770527 0.0683782 -0.07360219 -0.034819342 -0.07792009 0.0028841258 -0.025047708 0.020813836
-0.15677369 0.06354493 0.0712 0.007922909 -0.1000925 -0.080161594 -0.09513053 0.08056478
-0.07934704 -0.034134097 0.11028123 -0.041489076 0.042523447 -0.00022934822 -0.07866352 0.040043015
0.023245323 -0.086316645 0.039675564 0.016683083 -0.070327856 0.08742494 -0.06418084 -0.025220277
-0.02632608 0.023265496 -0.055589024 -0.064644195 -0.014653133 0.05462776 0.014568517 0.049734015
0.03745669 -0.029558513 0.020527698 0.06231202 0.062116243 -0.011930713 -0.052838586 -0.045669574
-0.044669967 0.051440336 0.10858139 0.07138632 -0.025561433 0.021642199 0.05335997 -0.0031504065
-0.057380065 0.013823667 0.09845527 0.016945316 0.03568442 0.03249889 0.043068774 -0.11082126
0.10042305 0.099901065 -0.016477613 0.04666916 0.09920509 0.049658902 -0.026652958 0.086695574
0.14023146 0.10171802 -0.046598986 0.11771883 -0.025099887 0.0927159 0.015025344 0.057258464
-0.025619378 -0.040718637 0.02611072 -0.0010468041 -0.033404548 -0.0018042687 0.009465582 0.046083305
0.06647283 -0.009849715 -0.030958612 0.049033817 -0.041354097 0.066332564 0.07133115 -0.034193132
0.0013730371 -0.014791184 0.047272705 -0.090630054 -0.036457185 -0.07436666 -0.03562722 0.045772277
0.039942935 -0.08081995 0.14741455 0.045574803 -0.0056239595 0.07091144 -0.012751687 0.024182325

weight f4 [10, 128]
00000000: 5b4d 6f3e 967a 91be 58a0 f1be 2890 b0be
00000010: 6db6 9f3e c21c 203e e2af 09bf 4bf8 e63e
00000020: 8383 633c 18e9 88be f9da 1c3e 6e68 2d3e
00000030: b576 513e c9ba 973e df9a d83c 8430 c0be
00000040: 7b8c 5a3e 352b a93e 5dbe c73e 9931 f03d
00000050: 4e33 d23e 8fdf a5be b4b0 3f3e 291f 0b3f
00000060: da58 1bbe 66d8 d5be 209a e5be b188 4a3e
00000070: c20d 533e b709 6a3e bac6 01be d7b3 643d
00000080: 2347 5c3e cd27 843e 1095 a83e 921c 0cbf
00000090: 5d22 0abf 60e4 15be 7f61 16bf e5d4 35bb
000000a0: 1315 0d3e b3c5 fdbe cc79 95be 371e 75be
000000b0: b6b7 c3be 798a afbe 21a1 313e dfdb 8b3e
000000c0: e2b2 903e c56a e4be 2e9d fb3d fd51 a73e
000000d0: ac90 96be 65b9 a2bc 89a3 18be 76fd 08bf
000000e0: 5f92 4fbe 0210 6bbe ca6d 21bf c260 923e
000000f0: 286a 9b3d e87d e3be 9157 7e3e 2bda 893e
00000100: 3ef1 943e 86e7 913e 7c18 40be 1a88 06bf
00000110: ccc8 a03e 5972 09bf 906a ecbe f398 023e
00000120: ba2b 983e 3738 fc3e ed7c 4e3e 1388 953e
00000130: e4d8 cd3d c44d cd3d 65b8 03bf 263a 213e
00000140: 1e08 e5bd f6d7 07bf cfd5 993e 2f94 9a3e
00000150: d2a4 84be d95f efbe c682 12bf 3add e6be
00000160: e1db dcbe 0783 36be e5f7 11bf 2467 25bf
00000170: cf6a d13e 23c2 653e 0f56 b83e b9d4 e53d
00000180: 6e0c 973e 771a 4f3e 9bdd 473e 9633 11be
00000190: d011 b6be 99be 313e f56c e9be 2551 74be
000001a0: 73ba 3bbe c7d1 44be ad72 3a3e 1c8b b0bd
000001b0: 9d29 123e 6440 6c3e 9683 393d 960f 81be
000001c0: 245d c1be a6b7 12bf 3004 263e 26f3 86bd
000001d0: 68fa 90be a7ec 85be b310 fcbe b573 1e3e
000001e0: e2d6 86be 72a4 dcbe 663c e63c 8b36 873d
000001f0: 0905 683e 8d04 523d 95c4 1ebf 8d12 ddbc
00000200: ded7 c13e 0257 c43d d208 9f3e 09e7 993e
00000210: b3bb e43e ced1 723e ee7a c93d 3e6f ebbc
00000220: ced8 77be 36af debe aa79 85be 5fb8 d3be
00000230: 8f73 c8be 9046 af3e 1833 0bbc f6eb ea3e
00000240: bdfb f5bd 95ba 99bd e74a 5cbe fc1a 263d
00000250: d7fe 77be f011 893d a2b7 64be 5111 743c
00000260: 72a6 45be 5f13 703e de76 543e 615c 41be
00000270: c0ed b6be def9 b73e 0b3b 52be 5030 92be
00000280: 2780 3bbe b48a e3bd 93fe b7be 218f 883e
00000290: 345f 903e 2734 83be cd29 8f3e d71c a33d
000002a0: d449 863e 1705 693e dc07 033f 7bc6 acbe
000002b0: 3311 913c db2b 3e3e 67c3 7cbe a5b3 efbe
000002c0: d22e 853e d419 7c3e 7d63 d0be 0857 b0be
000002d0: 2b22 dd3d 77ea 423e cc4f 4abe 89c6 873e
000002e0: 9ce6 303d f905 893e 1e4a 8c3d 7bec f63d
000002f0: d5c2 dcbe 3223 a93d f33e c8be 8ccb 58be
00000300: 049f e6be 4cd6 afbe 16db b2be d73a 943e
00000310: ea93 db3d dc64 743e 18cb 573e 5cfb f23d
00000320: 6ada d0bd b162 c7bc 87e5 c4be a4ae e4be
00000330: 68a3 f33d 71e0 9d3e 56ef 94be a406 cbbe
00000340: 8911 d3bc c3b3 bb3e b591 90be 6da3 babe
00000350: db98 093e 15a2 933e 3d3c 263e d0a5 f9be
00000360: 9611 273e 4d2d 2a3e 1087 153e 7f86 8c3e
00000370: 8b2d a1be a9db ae3d 9e27 c93b 59fd dabe
00000380: 5da3 9bbe 6df0 11be cb4f 85be 4ecf b9be
00000390: 9364 abbe 0fc1 813e 7efd 813e b949 a63e
000003a0: d2e9 81be 36f9 163e 8434 0bbd 93c5 8abe
000003b0: b9f4 3cbe d6e2 8cbe d42c fbbe d863 a13e
000003c0: 0ef3 5b3e ee8d dd3e 4e76 943e 70fa 5cbd
000003d0: 5910 d9be 1649 733e 7501 283e 1a1a d93e
000003e0: 5ec3 ea3e 2215 313d 063a 743e 8317 e4be
000003f0: 9a9f c9be ed56 093e d781 df3d c1d0 cf3e
0.23369353 -0.28413838 -0.47192645 -0.34484982 0.31193867 0.1563597 -0.53784 0.45111308
0.013886335 -0.26740336 0.15317906 0.16934368 0.2045544 0.29634693 0.026441036 -0.37537014
0.21342652 0.33040777 0.39012423 0.1172821 0.41054767 -0.32397124 0.1871975 0.5434442
-0.15170613 -0.4176666 -0.4484415 0.19778706 0.20610717 0.22855268 -0.12673464 0.05583557
0.21511512 0.25811616 0.32926226 -0.54731095 -0.53958684 -0.146379 -0.5874252 -0.0027745303
0.1377757 -0.49564895 -0.29194486 -0.23937307 -0.38226098 -0.34285334 0.17346622 0.27316186
0.28261477 -0.4461271 0.12285839 0.3267974 -0.2940725 -0.019863794 -0.14906134 -0.5351175
-0.2027068 -0.22955325 -0.6305815 0.28589445 0.07588607 -0.44431996 0.24838091 0.2692426
0.29090303 0.2849695 -0.1875934 -0.52551425 0.31403196 -0.53690106 -0.4617505 0.12753658
0.2972086 0.4926164 0.20164843 0.2920538 0.10051134 0.10024598 -0.5145324 0.15744838
-0.11183189 -0.53063905 0.30045936 0.3019118 -0.25906998 -0.46752813 -0.57230794 -0.45090657
-0.43136504 -0.1782342 -0.5701888 -0.64610505 0.409018 0.22437339 0.36003157 0.11222214
0.2950167 0.2022494 0.1951813 -0.14179835 -0.35560465 0.17357863 -0.4559094 -0.23859079
-0.18332843 -0.19220649 0.18207808 -0.08620283 0.14273687 0.23071438 0.045291506 -0.25207204
-0.37766373 -0.57311475 0.16212535 -0.06589346 -0.28316045 -0.26157114 -0.4923149 0.15473826
-0.26335818 -0.43094212 0.028104972 0.066022 0.22658171 0.05127387 -0.6201871 -0.026986385
0.37860006 0.09586908 0.31061417 0.30059078 0.44674453 0.23712847 0.098379 -0.028739568
-0.24203798 -0.4349305 -0.26069385 -0.413516 -0.39150664 0.34233522 -0.008496068 0.4588315
-0.12010906 -0.07506291 -0.21512948 0.040553078 -0.24218307 0.066928744 -0.22335675 0.014896707
-0.19301775 0.2344489 0.20748469 -0.18882896 -0.35728264 0.3593282 -0.20530336 -0.28552485
-0.18310605 -0.1111044 -0.35936412 0.266717 0.28197634 -0.25625727 0.2796158 0.07964485
0.262282 0.22755848 0.5118387 -0.3374518 0.017708397 0.18571417 -0.24683915 -0.46816745
0.26012284 0.24619228 -0.40700904 -0.344414 0.10797533 0.19034754 -0.19757003 0.26518658
0.043188676 0.2676237 0.06850074 0.12056824 -0.43117395 0.08258666 -0.39110526 -0.21171397
-0.45043194 -0.34343183 -0.34932774 0.2895114 0.10721572 0.238666 0.21073568 0.11864349
-0.10197909 -0.024339052 -0.38456365 -0.4466449 0.11896402 0.30835298 -0.2908885 -0.39653504
-0.025765197 0.36660585 -0.28236166 -0.3645281 0.13437216 0.28834596 0.16233917 -0.48759317
0.16315302 0.16618843 0.14602304 0.27446362 -0.3148006 0.085379906 0.006138756 -0.42771414
-0.30398074 -0.14251871 -0.2603744 -0.36290973 -0.3347517 0.25342605 0.25388712 0.3247812
-0.25373703 0.14743504 -0.03398563 -0.27103862 -0.1845273 -0.27516812 -0.4905764 0.31521487
0.21479437 0.43272346 0.2899651 -0.053949773 -0.42395285 0.23758349 0.16406806 0.42402726
0.45852178 0.043233044 0.23850259 -0.44549188 -0.3937958 0.13412066 0.10913437 0.40588954

bias f4 [10]
00000000: 4065 66bc 9fff f83c dd10 15bd 1bab 73bd
00000010: 747e 66bd fe58 823d d260 87bd 6de4 dbbc
00000020: b98f c4bd 1c85 0fbd
-0.014062226 0.030395327 -0.036393035 -0.05948935 -0.05627294 0.0636463 -0.06610264 -0.02684232
-0.095977254 -0.035039052
